…
4Z"}},"outputs":[{"execution_count":3,"output_type":"execute_result","data":{"text/plain":"False"},"metadata":{}}],"execution_count":3},{"cell_type":"code","source":"vgg_model.classifier[0:3]","metadata":{"trusted":true,"execution":{"iopub.status.busy":"2025-07-08T20:32:13.798473Z","iopub.execute_input":"2025-07-08T20:32:13.798677Z","iopub.status.idle":"2025-07-08T20:32:13.902108Z","shell.execute_reply.started":"2025-07-08T20:32:13.798651Z","shell.execute_reply":"2025-07-08T20:32:13.90144Z"}},"outputs":[{"execution_count":4,"output_type":"execute_result","data":{"text/plain":"Sequential(\n  (0): Linear(in_features=25088, out_features=4096, bias=True)\n  (1): ReLU(inplace=True)\n  (2): Dropout(p=0.5, inplace=False)\n)"},"metadata":{}}],"execution_count":4},{"cell_type":"code","source":"N_CLASSES = 6\n\nmodel = nn.Sequential(\n    vgg_model.features,\n    vgg_model.avgpool,\n    nn.Flatten(),\n    vgg_model.classifier[0:3],\n    nn.Linear(4096, 500),\n    nn.ReLU(),\n    nn.Linear(500, N_CLASSES)\n)\nmodel","metadata":{"trusted":true,"execution":{"iopub.status.busy":"2025-07-08T20:32:13.902857Z","iopub.execute_input":"2025-07-08T20:32:13.903463Z","iopub.status.idle":"2025-07-08T20:32:13.929994Z","shell.execute_reply.started":"2025-07-08T20:32:13.903438Z","shell.execute_reply":"2025-07-08T20:32:13.929512Z"}},"outputs":[{"execution_count":5,"output_type":"execute_result","data":{"text/plain":"Sequential(\n  (0): Sequential(\n    (0): Conv2d(3, 64, kernel_size=(3, 3), stride=(1, 1), padding=(1, 1))\n    (1): ReLU(inplace=True)\n    (2): Conv2d(64, 64, kernel_size=(3, 3), stride=(1, 1), padding=(1, 1))\n    (3): ReLU(inplace=True)\n    (4): MaxPool2d(kernel_size=2, stride=2, padding=0, dilation=1, ceil_mode=False)\n    (5): Conv2d(64, 128, kernel_size=(3, 3), stride=(1, 1), padding=(1, 1))\n    (6): ReLU(inplace=True)\n    (7): Conv2d(128, 128, kernel_size=(3, 3), stride=(1, 1), padding=(1, 1))\n    (8): ReLU(inplace=True)\n    (9): MaxPool2d(kernel_size=2, stride=2, padding=0, dilation=1, ceil_mode=False)\n    (10): Conv2d(128, 256, kernel_size=(3, 3), stride=(1, 1), padding=(1, 1))\n    (11): ReLU(inplace=True)\n    (12): Conv2d(256, 256, kernel_size=(3, 3), stride=(1, 1), padding=(1, 1))\n    (13): ReLU(inplace=True)\n    (14): Conv2d(256, 256, kernel_size=(3, 3), stride=(1, 1), padding=(1, 1))\n    (15): ReLU(inplace=True)\n    (16): MaxPool2d(kernel_size=2, stride=2, padding=0, dilation=1, ceil_mode=False)\n    (17): Conv2d(256, 512, kernel_size=(3, 3), stride=(1, 1), padding=(1, 1))\n    (18): ReLU(inplace=True)\n    (19): Conv2d(512, 512, kernel_size=(3, 3), stride=(1, 1), padding=(1, 1))\n    (20): ReLU(inplace=True)\n    (21): Conv2d(512, 512, kernel_size=(3, 3), stride=(1, 1), padding=(1, 1))\n    (22): ReLU(inplace=True)\n    (23): MaxPool2d(kernel_size=2, stride=2, padding=0, dilation=1, ceil_mode=False)\n    (24): Conv2d(512, 512, kernel_size=(3, 3), stride=(1, 1), padding=(1, 1))\n    (25): ReLU(inplace=True)\n    (26): Conv2d(512, 512, kernel_size=(3, 3), stride=(1, 1), padding=(1, 1))\n    (27): ReLU(inplace=True)\n    (28): Conv2d(512, 512, kernel_size=(3, 3), stride=(1, 1), padding=(1, 1))\n    (29): ReLU(inplace=True)\n    (30): MaxPool2d(kernel_size=2, stride=2, padding=0, dilation=1, ceil_mode=False)\n  )\n  (1): AdaptiveAvgPool2d(output_size=(7, 7))\n  (2): Flatten(start_dim=1, end_dim=-1)\n  (3): Sequential(\n    (0): Linear(in_features=25088, out_features=4096, bias=True)\n    (1): ReLU(inplace=True)\n    (2): Dropout(p=0.5, inplace=False)\n  )\n  (4): Linear(in_features=4096, out_features=500, bias=True)\n  (5): ReLU()\n  (6): Linear(in_features=500, out_features=6, bias=True)\n)"},"metadata":{}}],"execution_count":5},{"cell_type":"code","source":"loss_function = nn.CrossEntropyLoss()\noptimizer = Adam(model.parameters())\nmodel = torch.compile(model.to(device))","metadata":{"trusted":true,"execution":{"iopub.status.busy":"2025-07-08T20:32:13.930556Z","iopub.execute_input":"2025-07-08T20:32:13.930743Z","iopub.status.idle":"202
…
